model.pth (torch, 354908 bytes, 9 tensors)

weight_ih_l0 f4 [128, 1]
-0.074824005 0.31838977 0.19557536 -0.013539676 0.13923126 0.2787714 0.24288268 0.09557522
0.22253937 0.013924133 0.28341624 -0.0029773659 0.088607155 -0.02578463 -0.059270356 0.0940206
0.034123786 -0.023156736 0.14876258 0.103128426 0.04345022 -0.07836783 0.03625445 0.15615459
-0.058342207 0.22899824 0.016093954 0.03465681 -0.030922234 0.26781234 0.30036926 0.091351174
0.23453385 -0.05456319 0.24814756 -0.017234422 -0.05970702 0.22695746 -0.05244117 -0.027309088
0.06446085 -0.033089425 0.1126383 0.062572636 -0.08401507 0.10060517 0.17205314 0.16369699
-0.000333377 0.28118578 0.18535836 -0.027425395 0.08978953 -0.031710748 0.046562035 0.14828528
0.11497959 0.12611006 -0.013217879 -0.03303495 -0.07540074 -0.0717798 0.21103069 0.001101432
-0.17338331 0.2645303 -0.27300125 0.30269232 0.26808766 0.22730392 0.24227288 -0.303315
-0.27100644 0.21570641 0.09279842 -0.2111351 -0.23137945 0.2698248 0.12103881 -0.09739623
0.30850154 0.23801851 0.1619437 -0.09733371 -0.32985538 0.13933009 -0.13506272 -0.12856993
0.15132433 -0.112587154 0.28862965 0.22086014 0.21436378 0.28981155 0.0822577 0.12555712
-0.004998009 0.3964652 0.3574456 0.18331276 0.1172809 0.24049982 0.061754514 0.23374274
0.25578588 0.30276507 -0.03745719 0.301146 0.1515944 0.06873909 0.28910124 0.1851664
0.33530456 0.11484495 -0.011794237 0.23469439 0.42462137 -0.0038773662 0.08489883 0.0330292
0.30682814 -0.009549394 0.15441957 0.20548227 0.23806742 0.019709522 0.06498898 0.19260016
00000000: 543d 99bd fc03 a33e e844 483e 84d5 5dbc
00000010: a492 0e3e 20bb 8e3e 3db6 783e f1bc c33d
00000020: 5ce1 633e 0c22 643c ef1b 913e e91f 43bb
00000030: ab77 b53d 4a3a d3bc 79c5 72bd df8d c03d
00000040: 62c5 0b3d 32b3 bdbc 3855 183e ff34 d33d
00000050: dcf8 313d 507f a0bd 8c7f 143d fde6 1f3e
00000060: 3df8 6ebd 847e 6a3e 78d7 833c 4df4 0d3d
00000070: a050 fdbc b31e 893e 00ca 993e 5316 bb3d
00000080: a429 703e a77d 5fbd 651a 7e3e 342f 8dbc
00000090: 598f 74bd 8967 683e 8dcc 56bd 4fb7 dfbc
000000a0: 0d04 843d c788 07bd e9ae e63d 1526 803d
000000b0: 1810 acbd 150a ce3d b32e 303e 2fa0 273e
000000c0: 1ac9 aeb9 95f7 8f3e 95ce 3d3e 39ab e0bc
000000d0: 93e3 b73d 21e3 01bd d5b7 3e3d 19d8 173e
000000e0: 6b7a eb3d ff22 013e ce8f 58bc a84f 07bd
000000f0: b46b 9abd 4a01 93bd 6e18 583e ed5d 903a
00000100: 658b 31be 8470 873e d2c6 8bbe 7dfa 9a3e
00000110: c942 893e 5cc2 683e 6216 783e 1b4c 9bbe
00000120: 5bc1 8abe 24e2 5c3e 190d be3d cd33 58be
00000130: bcee 6cbe 7a26 8a3e 32e3 f73d ad77 c7bd
00000140: eaf3 9d3e 20bb 733e 92d4 253e e556 c7bd
00000150: cee2 a8be 8cac 0e3e e24d 0abe d6a7 03be
00000160: c4f4 1a3e 1894 e6bd 44c7 933e 2929 623e
00000170: 2e82 5b3e 2e62 943e ba76 a83d 0c92 003e
00000180: 57c6 a3bb 7dfd ca3e 1c03 b73e 57b6 3b3e
00000190: f830 f03d 9645 763e 4df2 7c3d 425a 6f3e
000001a0: 5ef6 823e 0604 9b3e b66c 19bd cf2f 9a3e
000001b0: 903b 1b3e 14c7 8c3d 1405 943e 439c 3d3e
000001c0: 0aad ab3e d433 eb3d 9e3c 41bc ba53 703e
000001d0: f967 d93e 691b 7ebb 70df ad3d a049 073d
000001e0: 9418 9d3e 1075 1cbc 2a20 1e3e f269 523e
000001f0: f2c7 733e dd75 a13c f118 853d fa38 453e

weight_hh_l0 f4 [128, 32]
-0.05292758 0.14289549 0.05257318 0.14580102 -0.051136974 -0.016732523 0.14720473 -0.17793606
-0.11343814 -0.008804823 0.011834665 -0.087232694 -0.087578274 0.011545028 -0.026018677 0.030536775
0.084673606 0.11088161 0.033249684 -0.09617017 -0.1808463 0.06977518 0.020169437 -0.08923742
0.015483117 -0.09031105 -0.043190733 0.085520275 0.09062805 -0.06386566 0.12165895 0.047301006
-0.0970783 0.11510601 -0.11995286 0.16926762 0.18410249 -0.02322647 0.08518295 -0.2011855
-0.00963124 -0.05090522 0.08656769 -0.10990985 0.043989833 0.13095264 0.16283107 0.013626143
0.0016861716 -0.03847807 0.0027486421 -0.093537085 -0.17808002 -0.026429933 -0.106804125 -0.042336915
-0.021187862 -0.147628 0.11036316 0.17199928 -0.027045155 0.12414778 0.02627282 0.09287979
-0.04044657 -0.038709026 -0.06201808 0.0031567295 0.18055794 0.031977307 0.07712774 0.015420744
-0.1150576 0.16224 0.13098146 0.001954188 -0.036164876 0.04957826 0.10073505 -0.0012431975
0.046796568 0.17491317 -0.02319027 -0.14439836 -0.026145456 -0.021306906 -0.03588382 -0.09037153
0.108391054 -0.08460118 0.10084119 0.06452339 0.18303144 0.097534664 0.19517684 0.099727176
-0.08521889 0.17307352 -0.040861458 0.1575211 0.06512343 0.19414236 0.1559478 -0.2145789
-0.043656316 0.12891303 0.024018163 -0.051367115 -0.05016938 0.1539314 0.032364212 -0.10039891
0.0017798136 0.094110064 0.027553793 -0.09220833 -0.1330428 0.010036338 -0.08648937 -0.11057162
0.06314151 -0.091257475 0.10783575 0.17266965 0.090174936 -0.01592644 0.12182848 0.10152956
-0.08299767 0.19536023 -0.1806625 -0.04369233 0.087729566 0.16552968 0.027586162 -0.18660767
-0.1639138 0.15688746 0.042580828 -0.14037213 0.0026095884 -0.03221942 0.105533145 -0.056278836
0.06111281 -0.069506206 0.13912219 -0.09003677 0.0038695883 -0.015694654 -0.069473356 -0.09315928
0.04230632 -0.18259253 -0.046818294 0.1419707 -0.0038647144 -0.03795488 -0.009013559 0.1420989
-0.1375397 0.015143893 -0.17670037 0.15587154 0.19952595 0.090137884 -0.06686062 -0.07246955
-0.028007118 -0.008208523 -0.041747887 -0.10274661 0.022546628 0.11505536 0.09403716 -0.089761056
-0.032093864 -0.046778064 0.053745396 -0.13218267 -0.1069078 0.008355855 -0.100172915 0.025041591
0.041183796 -0.010348538 0.0046889535 0.06363976 0.077018365 0.052188486 0.17812759 -0.022151249
-9.9312456e-05 -0.053339418 -0.08405631 0.013401221 0.15333557 0.19739242 0.18693587 -0.10684581
0.012395528 0.08262919 0.05862446 -0.111399576 0.019266864 0.02496339 0.10412341 -0.1387582
0.10775482 0.162602 0.09586036 -0.030927826 -0.13017489 0.00055896427 0.023893757 -0.015858073
0.16392155 -0.14952815 -0.059862692 0.17228018 0.040895153 -0.009239066 0.14220369 0.02386708
-0.1581661 0.09978612 0.043726902 0.17634618 0.006287289 0.10689758 -0.029268872 -0.017746337
-0.009517661 0.052766077 -0.03995291 -0.15292014 0.06358113 0.13068913 0.06679755 -0.05774764
-0.052208696 -0.006351579 -0.027134385 -0.13347872 0.0279425 -0.015296715 -0.0072120926 0.03136969
0.015905114 -0.02767148 0.08627852 0.12770654 -0.057363328 0.008313886 0.17454882 -0.04423621
00000000: 97ca 58bd 3253 123e fa56 573d dd4c 153e
00000010: 0175 51bd a512 89bc d6bc 163e df34 36be
00000020: 4152 e8bd 1b42 10bc 2fe6 413c 0ea7 b2bd
00000030: 3d5c b3bd 5b27 3d3c 1f25 d5bc 4228 fa3c
00000040: 5b69 ad3d e615 e33d d230 083d def4 c4bd
00000050: c62f 39be 4ae6 8e3d 603a a53c 1cc2 b6bd
00000060: e6ac 7d3c 00f5 b8bd c4e8 30bd 4125 af3d
00000070: 339b b93d 00cc 82bd 5428 f93d b3be 413d
00000080: fdd0 c6bd b3bc eb3d d8a9 f5bd 7e54 2d3e
00000090: 5d85 3c3e 7045 bebc 6674 ae3d 9203 4ebe
000000a0: 59cc 1dbc fe81 50bd 674a b13d 6a18 e1bd
000000b0: af2e 343d 7318 063e 30bd 263e 3040 5f3c
000000c0: 8802 dd3a 2e9b 1dbd 9022 343b 5f90 bfbd
000000d0: 9c5a 36be 9683 d8bc 1fbc dabd 7969 2dbd
000000e0: 2b92 adbc cb2b 17be 1506 e23d 9420 303e
000000f0: cd8d ddbc 3141 fe3d 193a d73c c237 be3d
00000100: 4dab 25bd 5b8d 1ebd ac06 7ebd 22e1 4e3b
00000110: 2ee4 383e a3fa 023d 26f5 9d3d 4aa7 7c3c
00000120: 52a3 ebbd 3e22 263e 0120 063e d611 003b
00000130: 9f21 14bd 9312 4b3d 2e4e ce3d c9f2 a2ba
00000140: c2ad 3f3d 701c 333e 85f9 bdbc 2add 13be
00000150: ff2e d6bc d28b aebc eafa 12bd b514 b9bd
00000160: 21fc dd3d 6243 adbd d385 ce3d d724 843d
00000170: 986c 3b3e 41c0 c73d 70dc 473e c33d cc3d
00000180: 3e87 aebd 2f3a 313e 585e 27bd 364d 213e
00000190: 6f5f 853d 41cd 463e c8b0 1f3e 92ba 5bbe
000001a0: f7d0 32bd c701 043e bdc1 c43c 5366 52bd
000001b0: 687e 4dbd 31a0 1d3e 5690 043d f29d cdbd
000001c0: a248 e93a c7bc c03d 7eb8 e13c b9d7 bcbd
000001d0: 5f3c 08be 746f 243c 5721 b1bd 6073 e2bd
000001e0: 5650 813d 33e5 babd fdd8 dc3d 50d0 303e
000001f0: a3ad b83d 2a78 82bc 3681 f93d bbee cf3d
00000200: affa a9bd 830c 483e 97ff 38be bbf6 32bd
00000210: 8fab b33d 9d80 293e 60fc e13c 1516 3fbe
00000220: 05d9 27be 1ba7 203e 3c69 2e3d b6bd 0fbe
00000230: a105 2b3b 83f8 03bd c321 d83d a384 66bd
00000240: 6d51 7a3d 4559 8ebd 0c76 0e3e 3365 b8bd
00000250: eb98 7d3b 1392 80bc 0c48 8ebd 4bca bebd
00000260: 6449 2d3d 89f9 3abe 8ac4 3fbd c460 113e
00000270: 2647 7dbb 9476 1bbd 9bad 13bc 6082 113e
00000280: 35d7 0cbe 171e 783c f1f0 34be ca9c 1f3e
00000290: 8850 4c3e 369a b83d 39ee 88bd ea6a 94bd
000002a0: 2f6f e5bc 0a7d 06bc d5ff 2abd d16c d2bd
000002b0: b5b3 b83c 25a2 eb3d 8e96 c03d a5d4 b7bd
000002c0: db74 03bd 5b9a 3fbd 2224 5c3d e55a 07be
000002d0: 7af2 dabd ffe6 083c 7527 cdbd 0624 cd3c
000002e0: 57b0 283d ea8c 29bc cba5 993b 9055 823d
000002f0: cebb 9d3d 98c3 553d 1467 363e 8976 b5bc
00000300: f845 d0b8 6f7a 5abd b725 acbd cb90 5b3c
00000310: 0004 1d3e 3d21 4a3e 1e6c 3f3e fad1 dabd
00000320: 9d16 4b3c 7e39 a93d 3420 703d 7625 e4bd
00000330: 8bd5 9d3c 0680 cc3c a83e d53d a116 0ebe
00000340: 8fae dc3d 2481 263e 7052 c43d 5a5c fdbc
00000350: 914c 05be 7587 123a d7bc c33c cae8 81bc
00000360: 0ddb 273e e81d 19be 9532 75bd 376a 303e
00000370: ad81 273d 745f 17bc d89d 113e e584 c33c
00000380: 4bf6 21be aa5c cc3d fb1a 333d 1894 343e
00000390: 9a05 ce3b 1eed da3d 46c5 efbc c460 91bc
000003a0: f7ef 1bbc 3e21 583d aaa5 23bd 1997 1cbe
000003b0: d336 823d 5fd3 053e 27cd 883d ca88 6cbd
000003c0: c9d8 55bd e820 d0bb ee48 debc a5ae 08be
000003d0: abe7 e43c 139f 7abc 6b53 ecbb 817d 003d
000003e0: 714b 823c 4daf e2bc cbb2 b03d 81c5 023e
000003f0: cff5 6abd f736 083c edbc 323e 0731 35bd

bias_ih_l0 f4 [128]
0.06580897 0.09077911 0.08802737 0.119489074 0.053791143 0.06400681 0.060163658 0.06964575
0.088985786 0.057532784 0.040419042 0.064476795 0.09070461 0.09187509 0.039037127 0.03845082
0.07616391 0.13055271 0.072401494 0.051050708 0.17491658 0.07213087 0.088045955 0.049498696
0.088280216 0.025103636 0.14501569 0.059033018 0.055247977 0.058085058 0.026720025 0.046249166
0.0056819725 0.018326601 0.014575155 -0.017231366 0.0012225272 0.012142207 -0.00045733267 0.00036727727
0.009911497 0.00642821 0.0065712407 0.012989568 0.0049928958 -0.008734766 0.011507254 0.015440771
0.014100862 0.008125634 -0.017002799 0.016053155 0.015052542 -0.0006028411 0.010124991 -0.0016146258
0.018986816 -0.00021467562 0.0064847735 0.008528335 0.008142624 -0.002000823 0.009977195 0.012555519
-0.016750943 0.034838274 -0.026156502 -0.016204352 0.012661418 0.026430823 0.010896845 -0.012917326
-0.020075832 0.019808993 0.020837346 -0.030908542 -0.019871086 0.0033206043 0.02652012 -0.041613888
0.030080687 0.0124861095 0.003193568 -0.028638003 -0.035805237 0.009784977 -0.017779881 -0.016988713
0.026054107 -0.021766562 0.0122362515 0.019140208 0.020475177 0.011755827 0.027613949 0.033059478
0.06802885 0.082977325 0.08231376 0.12087263 0.057069484 0.0645726 0.067346975 0.06664485
0.08903811 0.046511795 0.05038957 0.055775452 0.092064776 0.094955966 0.029072773 0.034664962
0.066264465 0.13370544 0.08014777 0.04517105 0.1555319 0.07472754 0.089913584 0.055164654
0.07701264 0.034339763 0.15073456 0.055569332 0.049749255 0.06895962 0.03577123 0.04190804
00000000: dac6 863d 66ea b93d b247 b43d b0b6 f43d
00000010: 1a54 5c3d 0116 833d 2b6e 763d 6ea2 8e3d
00000020: 2e3e b63d 7fa7 6b3d 708e 253d 690c 843d
00000030: 57c3 b93d 0229 bc3d 65e5 1f3d 9b7e 1d3d
00000040: d3fb 9b3d 9caf 053e 3c47 943d 8c1a 513d
00000050: 551d 333e 59b9 933d 7051 b43d 25bf 4a3d
00000060: 42cc b43d 24a6 cd3c fe7e 143e 9bcc 713d
00000070: b44b 623d 99ea 6d3d f4e3 da3c c46f 3d3d
00000080: d72f ba3b ab21 963c a2cc 6e3c cb28 8dbc
00000090: 353d a03a 1bf0 463c 27c6 efb9 1f8f c039
000000a0: d563 223c bca3 d23b 9053 d73b 32d2 543c
000000b0: 729b a33b 441c 0fbc ec88 3c3c 4afb 7c3c
000000c0: 4d07 673c 6121 053c 7449 8bbc e881 833c
000000d0: f09e 763c fb07 1eba 4ae3 253c daa1 d3ba
000000e0: 3d8a 9b3c 8c1a 61b9 397e d43b 6eba 0b3c
000000f0: a468 053c 3d20 03bb 6477 233c aab5 4d3c
00000100: 4639 89bc 94b2 0e3d 2946 d6bc fdbe 84bc
00000110: d671 4f3c 7485 d83c ae88 323c 31a3 53bc
00000120: 1276 a4bc 7846 a23c 15b3 aa3c e933 fdbc
00000130: b0c8 a2bc 7f9e 593b b940 d93c 5373 2abd
00000140: c66b f63c 8a92 4c3c 2e4b 513b 3f9a eabc
00000150: 83a8 12bd 2b51 203c 1da7 91bc ea2b 8bbc
00000160: 6c6f d53c ca4f b2bc 8f7a 483c edcb 9c3c
00000170: 8fbb a73c 839b 403c a636 e23c 6069 073d
00000180: b652 8b3d 04f0 a93d 1e94 a83d 128c f73d
00000190: b1c1 693d a43e 843d 36ed 893d 187d 883d
000001a0: 9d59 b63d 2783 3e3d 4b65 4e3d cd74 643d
000001b0: 758c bc3d 4678 c23d 062a ee3c d9fc 0d3d
000001c0: aab5 873d 14ea 083e 8424 a43d 4705 393d
000001d0: c143 1f3e c10a 993d 9d24 b83d 55f4 613d
000001e0: ceb8 9d3d daa7 0c3d 295a 1a3e ab9c 633d
000001f0: e0c5 4b3d b43a 8d3d da84 123d c4a7 2b3d

bias_hh_l0 f4 [128]
0.06580897 0.09077911 0.08802737 0.119489074 0.053791143 0.06400681 0.060163658 0.06964575
0.088985786 0.057532784 0.040419042 0.064476795 0.09070461 0.09187509 0.039037127 0.03845082
0.07616391 0.13055271 0.072401494 0.051050708 0.17491658 0.07213087 0.088045955 0.049498696
0.088280216 0.025103636 0.14501569 0.059033018 0.055247977 0.058085058 0.026720025 0.046249166
0.0056819725 0.018326601 0.014575155 -0.017231366 0.0012225272 0.012142207 -0.00045733267 0.00036727727
0.009911497 0.00642821 0.0065712407 0.012989568 0.0049928958 -0.008734766 0.011507254 0.015440771
0.014100862 0.008125634 -0.017002799 0.016053155 0.015052542 -0.0006028411 0.010124991 -0.0016146258
0.018986816 -0.00021467562 0.0064847735 0.008528335 0.008142624 -0.002000823 0.009977195 0.012555519
-0.016750943 0.034838274 -0.026156502 -0.016204352 0.012661418 0.026430823 0.010896845 -0.012917326
-0.020075832 0.019808993 0.020837346 -0.030908542 -0.019871086 0.0033206043 0.02652012 -0.041613888
0.030080687 0.0124861095 0.003193568 -0.028638003 -0.035805237 0.009784977 -0.017779881 -0.016988713
0.026054107 -0.021766562 0.0122362515 0.019140208 0.020475177 0.011755827 0.027613949 0.033059478
0.06802885 0.082977325 0.08231376 0.12087263 0.057069484 0.0645726 0.067346975 0.06664485
0.08903811 0.046511795 0.05038957 0.055775452 0.092064776 0.094955966 0.029072773 0.034664962
0.066264465 0.13370544 0.08014777 0.04517105 0.1555319 0.07472754 0.089913584 0.055164654
0.07701264 0.034339763 0.15073456 0.055569332 0.049749255 0.06895962 0.03577123 0.04190804
00000000: dac6 863d 66ea b93d b247 b43d b0b6 f43d
00000010: 1a54 5c3d 0116 833d 2b6e 763d 6ea2 8e3d
00000020: 2e3e b63d 7fa7 6b3d 708e 253d 690c 843d
00000030: 57c3 b93d 0229 bc3d 65e5 1f3d 9b7e 1d3d
00000040: d3fb 9b3d 9caf 053e 3c47 943d 8c1a 513d
00000050: 551d 333e 59b9 933d 7051 b43d 25bf 4a3d
00000060: 42cc b43d 24a6 cd3c fe7e 143e 9bcc 713d
00000070: b44b 623d 99ea 6d3d f4e3 da3c c46f 3d3d
00000080: d72f ba3b ab21 963c a2cc 6e3c cb28 8dbc
00000090: 353d a03a 1bf0 463c 27c6 efb9 1f8f c039
000000a0: d563 223c bca3 d23b 9053 d73b 32d2 543c
000000b0: 729b a33b 441c 0fbc ec88 3c3c 4afb 7c3c
000000c0: 4d07 673c 6121 053c 7449 8bbc e881 833c
000000d0: f09e 763c fb07 1eba 4ae3 253c daa1 d3ba
000000e0: 3d8a 9b3c 8c1a 61b9 397e d43b 6eba 0b3c
000000f0: a468 053c 3d20 03bb 6477 233c aab5 4d3c
00000100: 4639 89bc 94b2 0e3d 2946 d6bc fdbe 84bc
00000110: d671 4f3c 7485 d83c ae88 323c 31a3 53bc
00000120: 1276 a4bc 7846 a23c 15b3 aa3c e933 fdbc
00000130: b0c8 a2bc 7f9e 593b b940 d93c 5373 2abd
00000140: c66b f63c 8a92 4c3c 2e4b 513b 3f9a eabc
00000150: 83a8 12bd 2b51 203c 1da7 91bc ea2b 8bbc
00000160: 6c6f d53c ca4f b2bc 8f7a 483c edcb 9c3c
00000170: 8fbb a73c 839b 403c a636 e23c 6069 073d
00000180: b652 8b3d 04f0 a93d 1e94 a83d 128c f73d
00000190: b1c1 693d a43e 843d 36ed 893d 187d 883d
000001a0: 9d59 b63d 2783 3e3d 4b65 4e3d cd74 643d
000001b0: 758c bc3d 4678 c23d 062a ee3c d9fc 0d3d
000001c0: aab5 873d 14ea 083e 8424 a43d 4705 393d
000001d0: c143 1f3e c10a 993d 9d24 b83d 55f4 613d
000001e0: ceb8 9d3d daa7 0c3d 295a 1a3e ab9c 633d
000001f0: e0c5 4b3d b43a 8d3d da84 123d c4a7 2b3d

weight_ih_l0 f4 [512, 32]
-0.013963096 -0.003969478 0.010722711 0.016500786 0.03630209 0.052997828 -0.0091318805 -0.02054484
-0.030169215 0.04289133 0.012417846 -0.007310039 -0.0027926557 -0.020747833 0.036511306 0.0042902306
0.03300098 -0.0053093866 -0.00052759144 0.002335891 -0.0435423 -0.0084932335 -0.003477482 0.0053380467
0.011702465 -0.017858986 0.009559695 -0.011426128 0.037166234 0.021135177 0.0061109834 0.00023811795
-0.037154656 0.078993894 -0.077488355 0.049703777 0.061165843 0.07368831 0.05736044 -0.066238336
-0.06905318 0.057605874 0.027639197 -0.06339639 -0.051758505 0.050131742 0.04775239 -0.052738726
0.080049925 0.047311194 0.025219956 -0.032078203 -0.08058699 0.021811878 -0.02634776 -0.03159889
0.04037184 -0.043296937 0.06400641 0.052435778 0.054079898 0.06270554 0.049651556 0.04457942
-0.035695493 0.0643672 -0.061696265 0.0410008 0.05621472 0.060259994 0.05020613 -0.05938934
-0.054160595 0.050911285 0.02640972 -0.053584218 -0.04826991 0.042601615 0.04291804 -0.041318297
0.06540468 0.04028042 0.022812298 -0.028014194 -0.057803415 0.024009546 -0.026565712 -0.026126772
0.03587348 -0.039334606 0.051307593 0.047166936 0.046130683 0.05594612 0.044117186 0.03731991
-0.015846964 0.024847351 -0.026265508 0.015967574 0.022124847 0.024801243 0.025960524 -0.029035337
-0.023633096 0.018577829 0.014305984 -0.028955683 -0.020171778 0.018074028 0.020149989 -0.021384122
0.02239301 0.019471541 0.010066433 -0.015106207 -0.02267263 0.013251788 -0.014578786 -0.012979188
0.018365238 -0.02015123 0.024515036 0.022985937 0.0220943 0.030297184 0.022722313 0.019108713
-0.017010147 0.020529266 -0.055585913 0.014572326 0.042380445 0.065596014 0.04160937 0.015102744
-0.031387333 -0.014732313 -0.0033254474 -0.044544745 -0.018587105 -0.0021485505 0.036838472 0.014580855
0.00088887516 0.021871189 -0.0010491908 -0.02852453 -0.043527585 0.005979622 -0.0009900554 -0.0043907333
0.030853156 0.007971223 0.032793872 0.02706466 0.04016871 0.05337873 0.0072280536 0.008375493
-0.00039883 0.019402098 -0.0203729 -0.0024129315 0.011498846 0.012209335 0.0050381725 0.004995444
0.0004714606 0.012603815 0.0034577735 -0.010810167 -0.00448199 0.0017977447 0.0012944185 -0.014699928
0.01912542 -0.00047886124 -0.00055248715 -0.002473769 -0.010938346 0.0002838906 -0.0008872763 -0.0019627905
0.0038110686 -0.004194882 3.8161772e-05 0.0058985194 -0.0018380481 0.013195636 0.0026826847 0.005576867
-0.022318488 0.04664677 -0.0784976 0.06794035 0.030212043 0.05009 0.05533717 -0.040751383
-0.03711318 0.024635922 0.01775723 -0.03293478 -0.06136129 0.028819917 0.05922282 -0.031730946
0.083577216 0.031021249 0.018684512 -0.030297384 -0.06251949 0.013548262 -0.016110227 -0.036392786
0.02770476 -0.017829012 0.048833 0.028523112 0.02386183 0.07334776 0.06955573 0.022893315
-0.032472324 0.029755237 -0.054679524 0.06140895 0.07160195 0.091143094 0.083830416 -0.029047126
-0.021671712 -0.0029208849 -0.0007845198 -0.004806512 -0.036746494 0.018537465 0.052793063 -0.01013268
0.0071400222 0.040952202 0.00917973 -0.029793192 -0.08969443 0.0065146983 -0.01440633 -0.0055536125
0.036423966 0.0005753313 0.062089052 0.06548082 0.016793933 0.056789756 0.062957704 0.024816794
00000000: 78c5 64bc 6512 82bb 4fae 2f3c a82c 873c
00000010: 80b1 143d 4014 593d e29d 15bc a74d a8bc
00000020: 6e25 f7bc d2ae 2f3d 3974 4b3c 0d89 efbb
00000030: fd04 37bb 5cf7 a9bc e18c 153d 1095 8c3b
00000040: 092c 073d 5dfa adbb 104e 0aba bf15 193b
00000050: 6959 32bd 3427 0bbc 77e6 63bb c8ea ae3b
00000060: b2bb 3f3c 024d 92bc 44a0 1c3c a834 3bbc
00000070: 9f3b 183d ae23 ad3c a53e c83b 4daf 7939
00000080: 7b2f 18bd 8dc7 a13d 37b2 9ebd 3096 4b3d
00000090: 0989 7a3d e6e9 963d c8f2 6a3d f7a7 87bd
000000a0: c16b 8dbd 23f4 6b3d 996b e23c f7d5 81bd
000000b0: ba00 54bd f156 4d3d 0398 433d 9004 58bd
000000c0: 37f1 a33d 62c9 413d 159a ce3c 6f64 03bd
000000d0: cb0a a5bd d3ae b23c 42d7 d7bc d66d 01bd
000000e0: f15c 253d 2158 31bd cb15 833d e6c6 563d
000000f0: e282 5d3d c36b 803d 6e5f 4b3d e998 363d
00000100: 7035 12bd f3d2 833d 39b5 7cbd 74f0 273d
00000110: 6841 663d 2fd3 763d f1a4 4d3d 3d42 73bd
00000120: 80d7 5dbd 5a88 503d 3259 d83c 207b 5bbd
00000130: abb6 45bd 087f 2e3d d4ca 2f3d 603d 29bd
00000140: e4f2 853d 15fd 243d dbe0 ba3c 067e e5bc
00000150: 46c3 6cbd abaf c43c 56a0 d9bc d007 d6bc
00000160: 12f0 123d 531d 21bd e927 523d 1e32 413d
00000170: 87f3 3c3d c227 653d 39b4 343d c3dc 183d
00000180: 7ed1 81bc ac8c cb3c c32a d7bc 6ece 823c
00000190: 2b3f b53c fa2b cb3c 2aab d43c 84db edbc
000001a0: 329a c1bc 8830 983c a563 6a3c 7834 edbc
000001b0: 493f a5bc fc0f 943c 9711 a53c c12d afbc
000001c0: 8c71 b73c c882 9f3c aeed 243c 0680 77bc
000001d0: f4bb b9bc 071e 593c dcdb 6ebc a9a6 54bc
000001e0: b272 963c 3114 a5bc c2d3 c83c 014d bc3c
000001f0: 1bff b43c cd31 f83c 2524 ba3c e089 9c3c
00000200: dd58 8bbc fe2c a83c 0eae 63bd c4c0 6e3c
00000210: 1e97 2d3d 3457 863d 966e 2a3d 8071 773c
00000220: 0190 00bd cd5f 71bc c0ef 59bb 8d74 36bd
00000230: fc43 98bc b2ce 0cbb f0e3 163d 8ae4 6e3c
00000240: 6703 693a 352b b33c 0085 89ba 46ac e9bc
00000250: fb49 32bd b4f0 c33b bfc4 81ba 24e0 8fbb
00000260: c2bf fc3c bc99 023c de52 063d b5b6 dd3c
00000270: f287 243d a8a3 5a3d 4fd9 ec3b 5d39 093c
00000280: 0e1a d1b9 26f1 9e3c 11e5 a6bc 4622 1ebb
00000290: a865 3c3c aa09 483c 4117 a53b d2b0 a33b
000002a0: 5f2e f739 3b80 4e3c d09b 623b 201d 31bc
000002b0: a8dd 92bb 4da2 eb3a 7aa9 a93a f8d7 70bc
000002c0: eaac 9c3c ab0f fbb9 c9d4 10ba f51e 22bb
000002d0: c036 33bc 27d7 9439 1b98 68ba 29a2 00bb
000002e0: 1fc3 793b 3975 89bb e40f 2038 5e48 c13b
000002f0: a9ea f0ba 8232 583c fbcf 2f3b 27be b63b
00000300: 43d5 b6bc af10 3f3d 5ac3 a0bd 4f24 8b3d
00000310: 3f7f f73c 2c2b 4d3d 3aa9 623d ecea 26bd
00000320: fd03 18bd 46d1 c93c 9c77 913c 9fe6 06bd
00000330: fa55 7bbd bf17 ec3c a193 723d 4ff8 01bd
00000340: 882a ab3d 4620 fe3c 4310 993c 3832 f8bc
00000350: 380a 80bd 88f9 5d3c 98f9 83bc 9a10 15bd
00000360: 18f5 e23c 260e 92bc 1d05 483d 4da9 e93c
00000370: e279 c33c 5a37 963d 3c73 8e3d c38a bb3c
00000380: b301 05bd 41c1 f33c a3f7 5fbd f387 7b3d
00000390: 0ba4 923d 3ba9 ba3d 48af ab3d 3df4 edbc
000003a0: e088 b1bc 516c 3fbb 3ca8 4dba f27f 9dbb
000003b0: 7e83 16bd e2db 973c 8a3d 583d 8a03 26bc
000003c0: d9f6 e93b 7fbd 273d 9466 163c da10 f4bc
000003d0: b7b1 b7bd 4079 d53b 8708 6cbc 14fb b5bb
000003e0: 4c31 153d d4d1 163a 1751 7e3d cf1a 863d
000003f0: 6e93 893c 609c 683d f8ef 803d 974c cb3c

weight_hh_l0 f4 [512, 128]
-0.010945942 -0.005171749 -0.0028780992 0.007981883 0.013989828 0.0098831095 0.001875406 0.021795351
0.0068779634 -0.013953941 0.0068561714 -0.01891144 -0.021140818 -0.011988364 -0.0024086684 0.008597923
-0.01589949 0.010356334 0.0038619123 0.0037181769 0.023065558 0.010491682 0.010662482 -0.011746357
-0.0011626806 -0.008578697 -0.025690231 0.005114013 0.018794604 0.0058343103 -0.007227581 0.008239482
-0.005833072 0.014532063 -0.029996077 0.020207189 -0.0018081815 -0.014091113 0.0139144715 0.00014567804
-0.028351465 0.01248648 -0.001025723 0.022771552 -0.01360777 0.0019505636 0.008015958 0.014176868
-0.013839556 0.013294409 0.04312942 0.026932796 -0.0016802785 0.020170877 -0.034514267 0.0053599174
-0.022980949 0.04256908 0.02628543 0.04111361 0.008924753 -0.028757568 0.0036666866 0.011504978
-0.00022231333 -0.025144054 -0.021398444 -0.0035058353 -0.02489071 -0.029543558 0.02790498 0.026726715
0.012302723 -0.042421713 -0.0073433565 0.0180891 -0.01185952 -0.034082007 0.0024051722 -0.001060903
0.0024889316 -0.0073316307 0.0012762444 0.007858318 0.01519762 0.01505687 0.012432465 -0.026631681
0.011468354 -0.02290578 -0.036898274 0.009462415 -0.008871649 -0.0018990121 -0.00023575198 0.018449951
0.017193386 0.009116151 0.011811295 0.010915246 0.012393069 -0.00572887 0.006848824 -0.015610208
0.012147625 -0.044487275 0.010032173 -0.013953508 0.00825671 -0.015005443 0.0069518094 -0.006568997
0.0010015132 -0.04956051 0.009090821 -0.007498686 0.004791377 -0.0043685227 -0.015141688 -0.0008392521
0.013242558 0.0139834555 0.05815959 -0.0027983298 -0.011592567 -0.012395101 0.008708212 0.013749002
-0.00018161304 0.028161958 0.041695885 -0.02585877 0.013875907 0.008715916 0.026694028 0.036883976
-0.026913589 -0.002775331 0.015975766 -0.012442975 -0.04090365 -0.0001428697 -0.0040468723 0.015137336
-0.0033871105 0.0033202874 -0.006026175 0.0004831296 0.013652585 -0.0026728967 0.003219323 0.011344736
-0.03341198 0.0006820617 -0.023078052 0.015358773 0.011451906 -0.041994292 0.033604093 0.0011785309
0.002533124 0.013013303 -0.022079276 0.012873124 0.0368618 -0.032036986 0.025258347 0.0345127
-0.021136777 0.019825213 0.038163945 0.014026028 -0.031616952 0.025254069 -0.023183929 0.00087112165
-0.02848119 0.005839125 0.046208877 0.039322894 -0.0021798105 0.020077106 -0.033242185 -0.030099753
-0.01574835 0.047763214 0.030888507 0.030556897 0.0021222967 -0.02071826 0.04150508 0.0035409145
-0.035001654 -0.017050654 -0.01086506 0.0032013222 -0.021256743 -0.018699542 0.019672645 0.020563085
-0.027917055 -0.034287814 -0.0026907728 0.023993619 -0.016767265 -0.017440079 0.03287781 -0.038622838
0.0053448332 -0.03307273 -0.03726243 -0.026544362 0.00897659 -0.021193972 0.036596246 0.01686607
-0.016674751 -0.03003469 -0.028785508 0.01173878 0.028914979 -0.05037264 0.041540205 -0.023143096
0.013783179 0.0026156183 0.017182898 0.0131403785 0.008641096 -0.043465894 -0.036340658 -0.018363774
0.006085049 -0.012248443 0.008693416 -0.010069629 0.031023072 -0.015426252 0.00120849 0.024459865
-0.0069015697 -0.03999228 0.0055489554 -0.015512501 0.011055598 -0.01348762 -0.007966588 0.038523827
0.0025929287 0.0072304574 0.03648048 -0.038286712 -0.0032443877 -0.01800332 0.0143830385 0.0058127465
00000000: 9c56 33bc c677 a9bb 7e9e 3cbb 72c6 023c
00000010: 9735 653c c4ec 213c 2fd0 f53a 2a8c b23c
00000020: 8a60 e13b 129f 64bc bca9 e03b 2aec 9abc
00000030: 822f adbc d86a 44bc c0da 1dbb 4ede 0c3c
00000040: a63f 82bc 9dad 293c 2318 7d3b a8ac 733b
00000050: fbf3 bc3c 4ee5 2b3c b1b1 2e3c cb73 40bc
00000060: 1665 98ba aa8d 0cbc 5274 d2bc 7393 a73b
00000070: 24f7 993c be2d bf3b 58d5 ecbb e4fe 063c
00000080: 5b23 bfbb e417 6e3c 55ba f5bc 8c89 a53c
00000090: 8100 edba 69de 66bc 86f9 633c 27c1 1839
000000a0: 5541 e8bc 1894 4c3c 8d71 86ba 688b ba3c
000000b0: 20f3 5ebc 0eaa ff3a 5d55 033c 1846 683c
000000c0: 4ebf 62bc cbd0 593c 7aa8 303d 2ba2 dc3c
000000d0: ca3c dcba 653d a53c d55e 0dbd 3fa2 af3b
000000e0: 8b42 bcbc ea5c 2e3d 8b54 d73c bf66 283d
000000f0: 2139 123c fe94 ebbc cb4c 703b 607f 3c3c
00000100: c81c 69b9 e7fa cdbc ca4b afbc 28c2 65bb
00000110: 9ae7 cbbc 5505 f2bc fc98 e43c fcf1 da3c
00000120: 5c91 493c 64c2 2dbd 8aa0 f0bb 982f 943c
00000130: 6f4e 42bc 9399 0bbd 18a0 1d3b ff0d 8bba
00000140: 581d 233b 2d3e f0bb a847 a73a 2dc0 003c
00000150: 70ff 783c 17b1 763c 8ab1 4b3c af2a dabc
00000160: c3e5 3b3c e7a4 bbbc a522 17bd 3f08 1b3c
00000170: 655a 11bc 46e8 f8ba 3134 77b9 5a24 973c
00000180: 25d9 8c3c e95b 153c 2984 413c dcd5 323c
00000190: 4d0c 4b3c 3fb9 bbbb 1a6c e03b f5c1 7fbc
000001a0: d506 473c 4a38 36bd fc5d 243c 419d 64bc
000001b0: 2747 073c 64d9 75bc 01cc e33b be40 d7bb
000001c0: 3545 833a f6ff 4abd abf1 143c 8ab7 f5bb
000001d0: fc00 9d3b d325 8fbb d814 78bc 4101 5cba
000001e0: 50f7 583c dd1a 653c c038 6e3d 2f64 37bb
000001f0: c0ee 3dbc d214 4bbc e3ac 0e3c 7e43 613c
00000200: 616f 3eb9 e8b3 e63c 4ec9 2a3d c5d5 d3bc
00000210: c657 633c 34cd 0e3c 6fad da3c a713 173d
00000220: e379 dcbc 54e2 35bb 9cdf 823c 9fdd 4bbc
00000230: 968a 27bd 4bcf 15b9 a09b 84bb 9702 783c
00000240: 49fa 5dbb 2e99 593b 3877 c5bb 8f4c fd39
00000250: 18af 5f3c c42b 2fbb 47fb 523b 46df 393c
00000260: 00db 08bd 63cc 323a 2f0e bdbc 5da3 7b3c
00000270: c6a0 3b3c 3502 2cbd 72a4 093d ef78 9a3a
00000280: c502 263b c035 553c 99df b4bc cce9 523c
00000290: 66fc 163d 3739 03bd 98ea ce3c 305d 0d3d
000002a0: 0927 adbc 7c68 a23c cc51 1c3d 6dcd 653c
000002b0: c780 01bd 9fe1 ce3c 39ec bdbc fc5b 643a
000002c0: 6251 e9bc 2156 bf3b 8545 3d3d 0b11 213d
000002d0: 27db 0ebb be78 a43c f528 08bd c293 f6bc
000002e0: af02 81bc 5ca3 433d e509 fd3c 7552 fa3c
000002f0: 3b16 0b3b 57b9 a9bc 3b01 2a3d b00e 683b
00000300: e55d 0fbd d0ad 8bbc 5d03 32bc 46cd 513b
00000310: 9f22 aebc c82f 99bc 8728 a13c ea73 a83c
00000320: 4fb2 e4bc 6171 0cbd ad57 30bb 448e c43c
00000330: 815b 89bc 7fde 8ebc e2aa 063d fb32 1ebd
00000340: b623 af3b 4577 07bd 7da0 18bd 9073 d9bc
00000350: 8c12 133c fb9e adbc f2e5 153d b62a 8a3c
00000360: 7d99 88bc 4f0b f6bc 96cf ebbc 0354 403c
00000370: 1bdf ec3c 8b53 4ebd 1026 2a3d 9796 bdbc
00000380: d8d2 613c cb6a 2b3b 26c3 8c3c be4a 573c
00000390: 6293 0d3c 4b09 32bd f1d9 14bd a06f 96bc
000003a0: 1765 c73b b2ad 48bc d46e 0e3c 16fb 24bc
000003b0: 1924 fe3c 64be 7cbc 3266 9e3a 0e60 c83c
000003c0: 9026 e2bb f2ce 23bd 03d4 b53b 2528 7ebc
000003d0: 8a22 353c 2efb 5cbc 4b86 02bc 29cb 1d3d
000003e0: 20ee 293b 79ed ec3b 8e6c 153d 87d2 1cbd
000003f0: cb9f 54bb b37b 93bc d6a6 6b3c da78 be3b

bias_ih_l0 f4 [512]
0.04890789 0.12408037 0.10301419 0.0018833359 0.03492906 0.10182185 0.14567755 0.05675148
0.12045778 0.0025809004 0.116236396 0.036492355 0.056821868 -0.03781354 0.041236077 -0.023117986
0.100804284 -0.035792764 0.0036526914 0.06762472 0.0912037 0.024083573 -0.011148101 0.122324966
0.06198941 -0.028212395 0.04043481 0.17705761 0.18558423 0.077617906 0.21608205 0.003347594
-0.014227253 0.14512154 -0.004909155 0.07793209 0.18135044 0.1048161 0.0871712 0.08698653
0.07277197 -0.0038576457 0.08829242 0.002855214 0.089706935 0.10612602 0.035259068 0.044776697
0.19623785 0.016793784 0.12247125 0.029747378 0.0738074 0.10107578 0.083191924 0.10040067
-0.0164673 0.048002936 -0.015512632 0.075105645 0.11224392 -0.00010609083 0.102319196 0.08988128
0.11502101 0.015588162 -0.030953059 0.10239725 0.22557718 -0.041547634 0.08529219 0.08516828
0.12755264 0.02939378 0.07498377 0.031972464 0.09921379 0.060690697 0.0020368034 0.099870026
-0.01564658 0.039321024 0.06728489 0.1610057 0.042995878 0.20318343 0.09098249 0.15174814
0.07927281 0.09455635 0.108687714 0.08079724 0.056864202 0.08169008 0.06125758 0.22874838
0.029639803 0.2016044 0.08251627 0.007652999 0.06601821 0.0015627912 0.24189794 -0.013156178
0.0048246724 0.22771493 0.055563327 -0.029608028 0.06778741 -0.030040795 0.05733927 0.16718769
0.11484041 0.10381904 0.041732863 0.07928763 0.1278187 0.030958664 0.050436642 0.08337911
0.0628847 0.108622245 -0.018175272 0.13532585 0.08526283 -0.019385785 -0.03050448 0.044911824
0.020526964 -0.011339627 0.032192778 0.015042767 0.07969025 0.064954706 -0.062468987 -0.01769731
-0.06676052 0.0052455133 -0.090502456 0.03672644 -0.057977233 -0.020561416 -0.0156180905 -0.025169343
0.0071738483 -0.018221784 0.007271504 -0.01774054 -0.018658081 -0.0053959154 0.05045138 -0.021630706
-0.014141287 -0.015512765 -0.035513703 -0.04748228 -0.0044188034 -0.0005011823 -0.01914936 -0.016293664
-0.045907088 -0.030453065 0.036070604 0.077576764 0.0017801998 -0.043024328 0.045048684 -0.047552835
0.06580561 0.07423652 -0.07462399 0.020251844 -0.066007845 -0.020394709 -0.033377495 -0.017554704
-0.074934416 0.032576352 -0.030206017 -0.034134615 -0.033590734 0.0788764 -0.07383615 0.029104032
-0.02069675 0.030386431 0.059557565 0.058071572 -0.013912844 0.08092737 -0.05786046 0.03817481
0.022950694 0.05678271 0.06868546 0.048294093 0.021114118 -0.05651912 0.07324255 0.04750784
-0.08859481 -0.004753329 -0.032221414 0.06251164 0.02676098 -0.022729382 0.0813303 -0.06344899
-0.040547114 0.047921516 -0.014607583 0.031177223 -0.020128258 0.016806448 -0.015264703 -0.023002224
-0.015126891 0.02527942 0.01939838 0.0007709966 -0.059780624 -0.010927479 -0.036068518 -0.07399526
0.015407239 -0.0016751859 -0.0225161 0.034099463 -0.027736034 0.079133056 -0.002713334 0.07259087
-0.05044959 -0.046082027 0.029603854 0.030535044 0.03598998 0.027209716 0.07074054 -0.06627421
-0.060860034 0.061089683 0.0439937 0.036325887 0.0070538223 0.0587383 0.047054525 0.03155266
0.026139943 0.08220873 -0.03057093 -0.0043929303 -0.028936796 -0.032751516 0.05891386 -0.043742612
00000000: a453 483d d91d fe3d 1bf9 d23d 44da f63a
00000010: c611 0f3d f987 d03d 7f2c 153e 3d74 683d
00000020: 92b2 f63d 5324 293b 590d ee3d 0279 153d
00000030: 0cbe 683d 5fe2 1abd 29e7 283d ee61 bdbc
00000040: 7a72 ce3d 6f9b 12bd fe61 6f3b d47e 8a3d
00000050: 01c9 ba3d ea4a c53c 86a6 36bc 8385 fa3d
00000060: 9ce8 7d3d ae1d e7bc f99e 253d 974e 353e
00000070: cb09 3e3e 23f6 9e3d 9d44 5d3e 4f63 5b3b
00000080: 6d19 69bc be9a 143e fadc a0bb dc9a 9f3d
00000090: eeb3 393e d3a9 d63d d086 b23d fe25 b23d
000000a0: 7809 953d 8ed0 7cbb a8d2 b43d 8b1e 3b3b
000000b0: 45b8 b73d 9958 d93d d06b 103d c567 373d
000000c0: 93f2 483e 1e93 893c 35d2 fa3d c6b0 f33c
000000d0: 5628 973d d200 cf3d 8760 aa3d de9e cd3d
000000e0: 6ee6 86bc ba9e 443d b228 7ebc fdd0 993d
000000f0: 24e0 e53d 157d deb8 ba8c d13d ad13 b83d
00000100: 2390 eb3d 7d65 7f3c 4591 fdbc a6b5 d13d
00000110: b4fd 663e da2d 2abd acad ae3d b56c ae3d
00000120: 299d 023e 39cb f03c 1791 993d 8ff5 023d
00000130: 9930 cb3d cf96 783d e47b 053b a888 cc3d
00000140: 422d 80bc 150f 213d a9cc 893d aede 243e
00000150: 721c 303d 510f 503e 0755 ba3d dd63 1b3e
00000160: c859 a23d c2a6 c13d aa97 de3d 0679 a53d
00000170: 70ea 683d 214d a73d 3ae9 7a3d 043d 6a3e
00000180: 2ccf f23c 6271 4e3e 4afe a83d 02c6 fa3b
00000190: 8e34 873d 92d6 cc3a 18b4 773e 038d 57bc
000001a0: 4918 9e3b 1a2e 693e 5f96 633d 898c f2bc
000001b0: 20d4 8a3d 1d18 f6bc 95dc 6a3d 4033 2b3e
000001c0: 7331 eb3d 149f d43d 14f0 2a3d 8e61 a23d
000001d0: e8e2 023e 069d fd3c a796 4e3d abc2 aa3d
000001e0: b2c9 803d 5775 de3d 4fe4 94bc dc92 0a3e
000001f0: 479e ae3d f0ce 9ebc 88e4 f9bc 76f5 373d
00000200: 2a28 a83c d8c9 39bc 93dc 033d f075 763c
00000210: a434 a33d f906 853d 7bdf 7fbd f3f9 90bc
00000220: bdb9 88bd 8ee2 ab3b 5a59 b9bd 776e 163d
00000230: 8979 6dbd 6a70 a8bc 05e3 7fbc f02f cebc
00000240: 9a12 eb3b da45 95bc cc45 ee3b 9c54 91bc
00000250: d5d8 98bc 38d0 b0bb 1ba6 4e3d e132 b1bc
00000260: dbb0 67bc 4129 7ebc d176 11bd c77c 42bd
00000270: 9ccb 90bb c661 03ba 1edf 9cbc 4a7a 85bc
00000280: 1209 3cbd b578 f9bc c5be 133d 91e0 9e3d
00000290: 9855 e93a 473a 30bd f884 383d c3c6 42bd
000002a0: 17c5 863d 5109 983d 76d4 98bd 32e7 a53c
000002b0: 1f2f 87bd ce12 a7bc d7b6 08bd e2ce 8fbc
000002c0: 3777 99bd c86e 053d 9c72 f7bc bdd0 0bbd
000002d0: 7096 09bd f389 a13d 6837 97bd 946b ee3c
000002e0: 3b8c a9bc f7ec f83c a2f2 733d 75dc 6d3d
000002f0: b2f2 63bc 40bd a53d 17ff 6cbd 315d 1c3d
00000300: 1803 bc3c fd94 683d f6aa 8c3d 07d0 453d
00000310: 84f7 ac3c 9880 67bd 3100 963d 9597 423d
00000320: 3271 b5bd d0c1 9bbb 9afa 03bd 1a06 803d
00000330: d839 db3c f832 babc 8090 a63d 8bf1 81bd
00000340: bb14 26bd 5a49 443d a554 6fbc 6067 ff3c
00000350: 04e4 a4bc adad 893c ce18 7abc 296f bcbc
00000360: c8d6 77bc c916 cf3c 5ae9 9e3c b51c 4a3a
00000370: 87dc 74bd 2b09 33bc 95bc 13bd d48a 97bd
00000380: a56e 7c3c e991 dbba af73 b8bc e1ab 0b3d
00000390: ae36 e3bc 8310 a23d 31d2 31bb 86aa 943d
000003a0: 3ba4 4ebd 82c0 3cbd c883 f23c a124 fa3c
000003b0: 3b6a 133d e9e6 de3c 6be0 903d c6ba 87bd
000003c0: 5f48 79bd 2d39 7a3d bd32 343d 74ca 143d
000003d0: c023 e73b 9297 703d 3fbc 403d 5d3d 013d
000003e0: 6f23 d63c 0d5d a83d e36f fabc 92f2 8fbb
000003f0: dc0c edbc 7426 06bd a94f 713d 742b 33bd

bias_hh_l0 f4 [512]
0.10118341 0.14615162 0.09534192 -0.032731347 -0.0012345273 -0.02711981 0.020826908 0.10790012
0.15830989 0.074205436 0.15905009 -0.055404324 0.10885556 -0.018761119 0.15432991 -0.010510583
0.07357192 0.0031774878 0.061767112 0.0766677 -0.03859463 -0.033824753 0.0048336624 0.07176624
0.019498738 -0.04038199 0.08307635 0.05459694 0.19058667 0.07396335 0.113741726 0.025199298
0.005773951 0.16130197 0.07523791 -0.006932188 0.16872163 0.10512675 0.1124741 0.078280605
-0.0055939076 0.03798801 0.07181033 0.022032008 0.08221181 0.07789215 0.07751188 0.036931444
0.11431159 -0.03657773 0.08188707 0.008911094 0.050202336 0.047888182 0.10111365 0.0869278
0.07580513 -0.041957952 0.03029427 0.08285855 0.040845256 0.0102823395 0.12138983 0.027535582
0.18896835 0.09531323 0.0033460432 0.14144684 0.14419815 -0.02673736 0.040137332 -0.037306756
0.08570842 -0.010457076 0.001691257 -0.048074126 0.081907995 -8.255031e-05 0.04990421 0.14972857
0.07785258 0.0070353705 0.092814066 0.12845983 0.06031973 0.19052137 0.16983438 0.06486567
0.010662382 0.020750584 -0.022046398 0.036122892 0.1274612 0.14452676 0.15079351 0.1832804
0.027745722 0.07275961 -0.032234527 0.058561884 -0.002086961 0.04384414 0.21687104 -0.04521837
0.052237496 0.22510086 0.00032707147 -0.01929383 -0.009729026 -0.020657534 0.040325467 0.15212855
0.06765652 -0.005062588 0.08849597 0.11636491 0.12398378 -0.030880878 0.044122458 0.17969713
0.024666212 0.058330882 0.08014434 0.12439301 -0.03373405 0.030385504 -0.0052445084 -0.009585079
0.027992073 -0.07898312 0.037628327 0.025229633 -0.069882184 -0.024454346 0.013061273 -0.015144587
-0.030921986 0.027382057 -0.033208024 -0.0462619 0.0029696834 0.026612148 0.007834076 -0.07769965
0.00034050952 -0.012254083 -0.008104354 -0.021482646 -0.059567098 -0.03506175 -0.019382756 -0.022636477
-0.009084199 0.05947948 -0.05011978 -0.052717377 -0.083871275 -0.04124176 -0.056379534 -0.021353988
0.033906776 -0.014913504 -0.05749604 -0.0076673543 0.008981718 -0.043367114 -0.006462158 0.0206026
-0.041188587 0.02945259 -0.07341948 -0.042306434 -0.047845293 -0.06714203 -0.029865945 -0.006666776
0.045237634 -0.021174762 0.04704623 -0.06450031 0.013207901 0.067023784 0.04856008 -0.0711213
-0.058712866 -0.06358985 0.086558625 -0.017880568 0.033988237 -0.04028068 -0.011363064 -0.037900917
0.015970368 -0.030122425 -0.0006790699 -0.07258596 0.0012808299 0.05956091 0.0070743877 -0.046907518
0.0025273773 0.047769602 -0.069101304 -0.019345812 -0.012474978 0.024293795 0.0054019284 -0.060257852
0.035003714 0.05738772 -0.07006206 -0.051824402 -0.016428068 -0.01405791 0.058230303 -0.018470837
0.020713689 -0.029230598 -0.07342936 0.0664 -0.05471578 0.019177878 0.023815928 -0.04066829
0.038341936 0.015369069 -0.046214897 0.040102694 0.014774723 0.00045926173 -0.014612958 0.052236017
-0.06269611 -0.014323473 -0.06160773 0.079022996 -0.07259261 0.012477287 0.030631235 -0.051397473
-0.08455736 0.041246098 0.014513739 -0.029825496 0.023142062 0.031031957 -0.028098706 -0.015216868
0.043574356 -0.02210721 0.0586724 -0.010145445 -0.045184966 -0.036842074 0.049603056 -0.052384622
00000000: 3f39 cf3d c5a8 153e a042 c33d 4e11 06bd
00000010: ddcf a1ba 5d2a debc 319d aa3c bdfa dc3d
00000020: fd1b 223e 05f9 973d 07de 223e a5ef 62bd
00000030: aaef de3d ebb0 99bc a908 1e3e 9534 2cbc
00000040: e0ac 963d 663d 503b 83ff 7c3d f503 9d3d
00000050: 6715 1ebd d38b 0abd b363 9e3b 2efa 923d
00000060: d1bb 9f3c 9667 25bd ef23 aa3d 0aa1 5f3d
00000070: 2729 433e 197a 973d 6cf1 e83d c26e ce3c
00000080: 6933 bd3b 582c 253e 5516 9a3d 6827 e3bb
00000090: 5dc5 2c3e b24c d73d d258 e63d 9551 a03d
000000a0: 194d b7bb 5199 1b3d 4b11 933d 787c b43c
000000b0: aa5e a83d eb85 9f3d 8cbe 9e3d 6d45 173d
000000c0: 321c ea3d 88d2 15bd 68b4 a73d d6ff 113c
000000d0: f7a0 4d3d 6626 443d ac14 cf3d 3407 b23d
000000e0: b83f 9b3d 1adc 2bbd b02b f83c beb1 a93d
000000f0: 5b4d 273d 4277 283c 3b9b f83d 4d92 e13c
00000100: eb80 413e 9533 c33d 4a49 5b3b 71d7 103e
00000110: aea8 133e 4f08 dbbc 0b67 243d f8ce 18bd
00000120: e587 af3d 2854 2bbc 2bad dd3a 60e9 44bd
00000130: 61bf a73d dc1e adb8 5b68 4c3d 7252 193e
00000140: 2c71 9f3d f788 e63b 4d15 be3d f98a 033e
00000150: d211 773d 0918 433e 10e9 2d3e 4bd8 843d
00000160: 45b1 2e3c 21fd a93c a69a b4bc 99f5 133d
00000170: 3085 023e d3fe 133e 9d69 1a3e dbad 3b3e
00000180: ff4a e33c fe02 953d 5a08 04bd 96de 6f3d
00000190: 65c5 08bb ea95 333d 7113 5e3e e636 39bd
000001a0: fcf6 553d d780 663e ca7a ab39 180e 9ebc
000001b0: 7e66 1fbc fd39 a9bc 512c 253d 96c7 1b3e
000001c0: 808f 8a3d 11e4 a5bb 603d b53d ba50 ee3d
000001d0: 35eb fd3d e5f9 fcbc c0b9 343d 8602 383e
000001e0: cc10 ca3c 5dec 6e3d b722 a43d c3c1 fe3d
000001f0: b72c 0abd 05eb f83c 20da abbb bc0a 1dbc
00000200: a24f e53c e7c1 a1bd 2920 1a3d 60ae ce3c
00000210: 641e 8fbd 7b54 c8bc f3fe 553c 0021 78bc
00000220: 1b50 fdbc 5650 e03c 2305 08bd 1e7d 3dbd
00000230: 059f 423b b801 da3c 7f5a 003c fe20 9fbd
00000240: 6a86 b239 59c5 48bc 20c8 04bc 60fc afbc
00000250: a1fc 73bd e99c 0fbd 96c8 9ebc 2270 b9bc
00000260: e4d5 14bc c1a0 733d 664a 4dbd 2dee 57bd
00000270: b4c4 abbd 1fed 28bd 3aee 66bd 8fee aebc
00000280: d5e1 0a3d c557 74bc f880 6bbd 6e3e fbbb
00000290: 0e28 133c b7a1 31bd 83c0 d3bb c9c6 a83c
000002a0: 5db5 28bd 8f46 f13c f45c 96bd 8349 2dbd
000002b0: 6df9 43bd c381 89bd 6da9 f4bc f874 dabb
000002c0: 194b 393d b276 adbc 8cb3 403d bd18 84bd
000002d0: f465 583c c443 893d efe6 463d 0ba8 91bd
000002e0: e77c 70bd 653b 82bd a645 b13d 457a 92bc
000002f0: 4037 0b3d 5bfd 24bd 252c 3abc fe3d 1bbd
00000300: 4ad4 823c 4ec3 f6bc 9c03 32ba f3a7 94bd
00000310: 85e1 a73a 24f6 733d 44d0 e73b 1922 40bd
00000320: 5ba2 253b 0faa 433d fc84 8dbd 1c7b 9ebc
00000330: da63 4cbc c803 c73c a902 b13b f0d0 76bd
00000340: 0e60 0f3d 630f 6b3d b37c 8fbd d345 54bd
00000350: 2894 86bc 2653 66bc e682 6e3d 2750 97bc
00000360: c1af a93c 0275 efbc 2262 96bd b9fc 873d
00000370: a71d 60bd ed1a 9d3c 9f19 c33c cb93 26bd
00000380: 6f0c 1d3d 8cce 7b3c d54b 3dbd b942 243d
00000390: ae11 723c 11c9 f039 306b 6fbc 6ff5 553d
000003a0: d166 80bd 00ad 6abc 6358 7cbd cfd6 a13d
000003b0: 6fab 94bd 896d 4c3c 5bee fa3c 2886 52bd
000003c0: 692c adbd abf1 283d 09cb 6d3c 9954 f4bc
000003d0: 6c94 bd3c bb36 fe3c 422f e6bc 2c50 79bc
000003e0: 067b 323d 2e1a b5bc 7852 703d 1539 26bc
000003f0: df13 39bd b7e7 16bd 932c 4b3d 4291 56bd

weight f4 [1, 128]
-0.08173545 0.081955425 0.03775275 -0.029903457 0.119097084 0.07773109 0.0894402 0.10147114
-0.07885757 -0.024478767 -0.2104501 -0.033228558 0.14669982 -0.024795009 -0.13522328 0.115461834
-0.036961768 0.082682446 0.055415194 0.14187093 0.019426806 0.06385386 0.09519091 0.048016164
-0.09746799 -0.07270365 -0.038614992 0.099742524 -0.13987803 -0.09747944 0.10416741 0.07758802
-0.090713106 -0.120033205 -0.100833826 0.08926771 0.10640649 0.14517565 0.11682834 0.044074696
-0.07955705 0.06830178 0.07854252 0.08040967 0.10059507 0.0774309 -0.07823717 0.06560197
0.1510743 0.08960208 0.06747591 -0.12868173 -0.08857601 0.10226187 -0.10485359 -0.11646128
-0.06630845 0.04822804 0.041849386 0.065242834 0.09353984 -0.052449305 0.08756032 0.049559932
-0.09740827 -0.11555258 -0.04888573 -0.16524337 0.18451148 -0.081666104 0.10512726 0.062479794
-0.09117616 -0.054935228 -0.14779086 0.057286024 -0.060445603 -0.049174372 0.075772345 -0.10100314
0.09920473 -0.032276083 -0.08321353 -0.1215154 0.07568669 -0.11641371 -0.11376587 0.09543555
0.018200727 -0.033103887 -0.099418856 0.0411705 0.12116672 -0.051637348 0.106557816 -0.12374299
0.034883704 -0.15762992 0.064705014 0.057647843 0.11688728 -0.044409186 -0.10368958 -0.1024918
0.11188732 0.110761784 0.13543028 -0.12547304 0.109021865 -0.0016486692 0.14771754 0.11555317
0.116055794 -0.045357928 0.082105726 -0.08510463 0.09244516 -0.10765105 -0.080189556 0.12231799
0.026617017 0.06287866 0.07039223 -0.08875223 -0.035213135 -0.093376316 0.089609236 0.038241886
00000000: ea64 a7bd 3fd8 a73d a1a2 1a3d 18f8 f4bc
00000010: 2ce9 f33d 7a31 9f3d 6c2c b73d 1ad0 cf3d
00000020: 1480 a1bd b287 c8bc 3b80 57be ab1a 08bd
00000030: 7a38 163e e71e cbbc f977 0abe 4177 ec3d
00000040: 3965 17bd 6a55 a93d 0bfb 623d 9d46 113e
00000050: f724 9f3c d0c5 823d 74f3 c23d 99ac 443d
00000060: 4c9d c7bd a7e5 94bd c12a 1ebd cf45 cc3d
00000070: 303c 0fbe 4da3 c7bd b955 d53d 78e6 9e3d
00000080: cbc7 b9bd f8d3 f5bd f781 cebd fdd1 b63d
00000090: a5eb d93d eda8 143e b243 ef3d ab87 343d
000000a0: ceee a2bd cee1 8b3d e7da a03d d3ad a43d
000000b0: ca04 ce3d 1794 9e3d cf3a a0bd 535a 863d
000000c0: 39b3 1a3e 4c81 b73d cf30 8a3d 25c5 03be
000000d0: 5767 b5bd ac6e d13d 7bbd d6bd 4083 eebd
000000e0: bacc 87bd c48a 453d 436a 2b3d 099e 853d
000000f0: d191 bf3d 15d5 56bd d352 b33d 5bff 4a3d
00000100: fd7d c7bd d5a6 ecbd 673c 48bd 8f35 29be
00000110: 94f0 3c3e 8f40 a7bd f64c d73d d0ea 7f3d
00000120: 91ba babd c303 61bd 7d56 17be c0a4 6a3d
00000130: cf95 77bd 116b 49bd 882e 9b3d bcda cebd
00000140: d92b cb3d ed33 04bd db6b aabd 11dd f8bd
00000150: a001 9b3d 506a eebd 15fe e8bd b773 c33d
00000160: b119 953c f197 07bd 1d9c cbbd 66a2 283d
00000170: 4226 f83d af81 53bd fc3a da3d f76c fdbd
00000180: 37e2 0e3d bd69 21be 1084 843d 2520 6c3d
00000190: 9962 ef3d 68e6 35bd 345b d4bd 39e7 d1bd
000001a0: 2e25 e53d 13d7 e23d 3cae 0a3e 017c 00be
000001b0: db46 df3d 2918 d8ba 4443 173e 24a7 ec3d
000001c0: a9ae ed3d 3cc9 39bd 0c27 a83d 564b aebd
000001d0: e353 bd3d 2778 dcbd 6c3a a4bd db81 fa3d
000001e0: ee0b da3c 87c6 803d cd29 903d bbc3 b5bd
000001f0: a63b 10bd 153c bfbd 0c85 b73d 86a3 1c3d
